…
The number of inters: 227428
The sparsity of the dataset: 99.45269361912588%
Remain Fields: ['user_id', 'venue_id', 'timestamp', 'venue_category_id', 'venue_category_name', 'latitude', 'longitude']
06 Nov 00:45    INFO  [Training]: train_batch_size = [1024] train_neg_sample_args: [{'distribution': 'none', 'sample_num': 'none', 'alpha': 'none', 'dynamic': False, 'candidate_num': 0}]
06 Nov 00:45    INFO  [Evaluation]: eval_batch_size = [4096] eval_args: [{'split': {'LS': 'valid_and_test'}, 'order': 'TO', 'group_by': 'user', 'mode': {'valid': 'full', 'test': 'full'}}]
06 Nov 00:45    INFO  Mamba4POI(
  (item_embedding): Embedding(38334, 128, padding_idx=0)
  (LayerNorm): LayerNorm((128,), eps=1e-12, elementwise_affine=True)
  (dropout): Dropout(p=0.2, inplace=False)
  (mamba_layers): ModuleList(
    (0): MambaLayer(
      (mamba): Mamba(
        (in_proj): Linear(in_features=128, out_features=512, bias=False)
        (conv1d): Conv1d(256, 256, kernel_size=(4,), stride=(1,), padding=(3,), groups=256)
        (act): SiLU()
        (x_proj): Linear(in_features=256, out_features=72, bias=False)
        (dt_proj): Linear(in_features=8, out_features=256, bias=True)
        (out_proj): Linear(in_features=256, out_features=128, bias=False)
      )
      (dropout): Dropout(p=0.2, inplace=False)
      (LayerNorm): LayerNorm((128,), eps=1e-12, elementwise_affine=True)
      (ffn): FeedForward(
        (w_1): Linear(in_features=128, out_features=512, bias=True)
        (w_2): Linear(in_features=512, out_features=128, bias=True)
        (activation): GELU(approximate='none')
        (dropout): Dropout(p=0.2, inplace=False)
        (LayerNorm): LayerNorm((128,), eps=1e-12, elementwise_affine=True)
      )
    )
  )
  (loss_fct): CrossEntropyLoss()
)
Trainable parameters: 5168000
06 Nov 00:45    INFO  FLOPs: 26393728.0
06 Nov 00:47    INFO  epoch 0 training [time: 122.57s, train loss: 6383.4394]
06 Nov 00:47    INFO  epoch 0 evaluating [time: 0.24s, valid_score: 0.018400]
06 Nov 00:47    INFO  valid result: 
recall@20 : 0.0406    ndcg@20 : 0.0233    mrr@20 : 0.0184
…
