…
The sparsity of the dataset: 99.45269361912588%
Remain Fields: ['user_id', 'venue_id', 'timestamp', 'venue_category_id', 'venue_category_name', 'latitude', 'longitude']
Tue 05 Nov 2024 23:07:46 INFO  [Training]: train_batch_size = [1024] train_neg_sample_args: [{'distribution': 'none', 'sample_num': 'none', 'alpha': 'none', 'dynamic': False, 'candidate_num': 0}]
Tue 05 Nov 2024 23:07:46 INFO  [Evaluation]: eval_batch_size = [4096] eval_args: [{'split': {'LS': 'valid_and_test'}, 'order': 'TO', 'group_by': 'user', 'mode': {'valid': 'full', 'test': 'full'}}]
Tue 05 Nov 2024 23:07:47 INFO  Mamba4POI(
  (item_embedding): Embedding(38334, 64, padding_idx=0)
  (LayerNorm): LayerNorm((64,), eps=1e-12, elementwise_affine=True)
  (dropout): Dropout(p=0.2, inplace=False)
  (mamba_layers): ModuleList(
    (0): MambaLayer(
      (mamba): Mamba(
        (in_proj): Linear(in_features=64, out_features=256, bias=False)
        (conv1d): Conv1d(128, 128, kernel_size=(4,), stride=(1,), padding=(3,), groups=128)
        (act): SiLU()
        (x_proj): Linear(in_features=128, out_features=68, bias=False)
        (dt_proj): Linear(in_features=4, out_features=128, bias=True)
        (out_proj): Linear(in_features=128, out_features=64, bias=False)
      )
      (dropout): Dropout(p=0.2, inplace=False)
      (LayerNorm): LayerNorm((64,), eps=1e-12, elementwise_affine=True)
      (ffn): FeedForward(
        (w_1): Linear(in_features=64, out_features=256, bias=True)
        (w_2): Linear(in_features=256, out_features=64, bias=True)
        (activation): GELU(approximate='none')
        (dropout): Dropout(p=0.2, inplace=False)
        (LayerNorm): LayerNorm((64,), eps=1e-12, elementwise_affine=True)
      )
    )
  )
  (loss_fct): CrossEntropyLoss()
)
Trainable parameters: 2525632
Tue 05 Nov 2024 23:07:47 INFO  FLOPs: 6643264.0
Tue 05 Nov 2024 23:08:42 INFO  epoch 0 training [time: 55.53s, train loss: 5069.0597]
Tue 05 Nov 2024 23:08:42 INFO  epoch 0 evaluating [time: 0.11s, valid_score: 0.005800]
Tue 05 Nov 2024 23:08:42 INFO  valid result: 
recall@20 : 0.0175    ndcg@20 : 0.0083    mrr@20 : 0.0058
…
