…
eval_type = EvaluatorType.RANKING
local_rank = 0
device = cuda
valid_neg_sample_args = {'distribution': 'none', 'sample_num': 'none'}
test_neg_sample_args = {'distribution': 'none', 'sample_num': 'none'}


Fri 13 Dec 2024 19:40:01 INFO  foursquare_NYC
The number of users: 1084
Average actions of users: 209.99815327793166
The number of items: 38334
Average actions of items: 5.932955938747294
The number of inters: 227428
The sparsity of the dataset: 99.45269361912588%
Remain Fields: ['user_id', 'venue_id', 'timestamp', 'venue_category_id', 'latitude', 'longitude']
Fri 13 Dec 2024 19:40:01 INFO  Mamba4POI(
  (item_embedding): Embedding(38334, 128, padding_idx=0)
  (LayerNorm): LayerNorm((128,), eps=1e-12, elementwise_affine=True)
  (dropout): Dropout(p=0.2, inplace=False)
  (mamba_layers): ModuleList(
    (0): MambaLayer(
      (mamba): Mamba(
        (in_proj): Linear(in_features=128, out_features=512, bias=False)
        (conv1d): Conv1d(256, 256, kernel_size=(4,), stride=(1,), padding=(3,), groups=256)
        (act): SiLU()
        (x_proj): Linear(in_features=256, out_features=72, bias=False)
        (dt_proj): Linear(in_features=8, out_features=256, bias=True)
        (out_proj): Linear(in_features=256, out_features=128, bias=False)
      )
      (dropout): Dropout(p=0.2, inplace=False)
      (LayerNorm): LayerNorm((128,), eps=1e-12, elementwise_affine=True)
      (ffn): FeedForward(
        (w_1): Linear(in_features=128, out_features=512, bias=True)
        (w_2): Linear(in_features=512, out_features=128, bias=True)
        (activation): GELU(approximate='none')
        (dropout): Dropout(p=0.2, inplace=False)
        (LayerNorm): LayerNorm((128,), eps=1e-12, elementwise_affine=True)
      )
    )
  )
  (loss_fct): BPRLoss()
)
Trainable parameters: 5168000
